2019-04-10 08:54:13,345 - INFO: loading data...
2019-04-10 08:54:13,471 - INFO: Done
2019-04-10 08:54:13,471 - INFO: Loading model...
2019-04-10 08:54:13,482 - INFO: done
2019-04-10 08:54:13,482 - INFO: SuperPointNet(
  (relu): ReLU(inplace)
  (pool): MaxPool2d(kernel_size=2, stride=2, padding=0, dilation=1, ceil_mode=False)
  (conv1a): Conv2d(1, 64, kernel_size=(3, 3), stride=(1, 1), padding=(1, 1))
  (bn1a): BatchNorm2d(64, eps=1e-05, momentum=0.1, affine=True, track_running_stats=True)
  (conv1b): Conv2d(64, 64, kernel_size=(3, 3), stride=(1, 1), padding=(1, 1))
  (bn1b): BatchNorm2d(64, eps=1e-05, momentum=0.1, affine=True, track_running_stats=True)
  (conv2a): Conv2d(64, 64, kernel_size=(3, 3), stride=(1, 1), padding=(1, 1))
  (bn2a): BatchNorm2d(64, eps=1e-05, momentum=0.1, affine=True, track_running_stats=True)
  (conv2b): Conv2d(64, 64, kernel_size=(3, 3), stride=(1, 1), padding=(1, 1))
  (bn2b): BatchNorm2d(64, eps=1e-05, momentum=0.1, affine=True, track_running_stats=True)
  (conv3a): Conv2d(64, 128, kernel_size=(3, 3), stride=(1, 1), padding=(1, 1))
  (bn3a): BatchNorm2d(128, eps=1e-05, momentum=0.1, affine=True, track_running_stats=True)
  (conv3b): Conv2d(128, 128, kernel_size=(3, 3), stride=(1, 1), padding=(1, 1))
  (bn3b): BatchNorm2d(128, eps=1e-05, momentum=0.1, affine=True, track_running_stats=True)
  (conv4a): Conv2d(128, 128, kernel_size=(3, 3), stride=(1, 1), padding=(1, 1))
  (bn4a): BatchNorm2d(128, eps=1e-05, momentum=0.1, affine=True, track_running_stats=True)
  (conv4b): Conv2d(128, 128, kernel_size=(3, 3), stride=(1, 1), padding=(1, 1))
  (bn4b): BatchNorm2d(128, eps=1e-05, momentum=0.1, affine=True, track_running_stats=True)
  (convPa): Conv2d(128, 256, kernel_size=(3, 3), stride=(1, 1), padding=(1, 1))
  (bnPa): BatchNorm2d(256, eps=1e-05, momentum=0.1, affine=True, track_running_stats=True)
  (convPb): Conv2d(256, 65, kernel_size=(1, 1), stride=(1, 1))
  (bnPb): BatchNorm2d(65, eps=1e-05, momentum=0.1, affine=True, track_running_stats=True)
  (convDa): Conv2d(128, 256, kernel_size=(3, 3), stride=(1, 1), padding=(1, 1))
  (convDb): Conv2d(256, 256, kernel_size=(1, 1), stride=(1, 1))
)
2019-04-10 08:54:13,483 - INFO: Start training
2019-04-10 10:03:22,648 - INFO: epoch:1,batch:1000,AVG.loss:2.9075619617700577
2019-04-10 10:03:23,983 - INFO: save model to /home/luo3300612/Workspace/PycharmWS/mySuperPoint/superpoint/model/result/epoch1_iter1000
2019-04-10 10:05:13,212 - INFO: AVG. test loss:1.8960535977681479
2019-04-10 11:42:05,268 - INFO: epoch:2,batch:1000,AVG.loss:1.413729419976473
…
